_________________________________________________________________
Layer (type)                 Output Shape              Param #   
=================================================================
conv1d_1 (Conv1D)            (None, 2, 100)            800       
_________________________________________________________________
conv1d_2 (Conv1D)            (None, 2, 150)            15150     
_________________________________________________________________
conv1d_3 (Conv1D)            (None, 2, 200)            30200     
_________________________________________________________________
global_average_pooling1d_1 ( (None, 200)               0         
_________________________________________________________________
dense_1 (Dense)              (None, 64)                12864     
_________________________________________________________________
dense_2 (Dense)              (None, 16)                1040      
_________________________________________________________________
dense_3 (Dense)              (None, 4)                 68        
_________________________________________________________________
dense_4 (Dense)              (None, 1)                 5         
=================================================================
Total params: 60,127
Trainable params: 60,127
Non-trainable params: 0
_________________________________________________________________
